…
I0720 08:22:35.048833  1774 net.cpp:323] The NetState phase (0) differed from the phase (1) specified by a rule in layer val-data
I0720 08:22:35.048851  1774 net.cpp:323] The NetState phase (0) differed from the phase (1) specified by a rule in layer accuracy
I0720 08:22:35.048983  1774 net.cpp:52] Initializing net from parameters:
state {
phase: TRAIN
}
layer {
name: "train-data"
type: "Data"
top: "data"
top: "label"
include {
phase: TRAIN
}
transform_param {
mirror: true
crop_size: 227
mean_file: "/opt/DIGITS/digits/jobs/20190720-065906-aa97/mean.binaryproto"
}
data_param {
source: "/opt/DIGITS/digits/jobs/20190720-065906-aa97/train_db"
batch_size: 128
backend: LMDB
}
}
layer {
name: "conv1"
type: "Convolution"
bottom: "data"
top: "conv1"
param {
lr_mult: 1
decay_mult: 1
}
param {
lr_mult: 2
decay_mult: 0
}
convolution_param {
num_output: 96
kernel_size: 11
stride: 4
weight_filler {
type: "gaussian"
std: 0.01
}
bias_filler {
type: "constant"
value: 0
}
}
}
layer {
name: "relu1"
type: "ReLU"
bottom: "conv1"
top: "conv1"
}
layer {
name: "norm1"
type: "LRN"
bottom: "conv1"
top: "norm1"
lrn_param {
local_size: 5
alpha: 0.0001
beta: 0.75
}
}
layer {
name: "pool1"
type: "Pooling"
bottom: "norm1"
top: "pool1"
pooling_param {
pool: MAX
kernel_size: 3
stride: 2
}
}
layer {
name: "conv2"
type: "Convolution"
bottom: "pool1"
top: "conv2"
param {
lr_mult: 1
decay_mult: 1
}
param {
lr_mult: 2
decay_mult: 0
}
convolution_param {
num_output: 256
pad: 2
kernel_size: 5
group: 2
weight_filler {
type: "gaussian"
std: 0.01
}
bias_filler {
type: "constant"
value: 0.1
}
}
}
layer {
name: "relu2"
type: "ReLU"
bottom: "conv2"
top: "conv2"
}
layer {
name: "norm2"
type: "LRN"
bottom: "conv2"
top: "norm2"
lrn_param {
local_size: 5
alpha: 0.0001
beta: 0.75
}
}
layer {
name: "pool2"
type: "Pooling"
bottom: "norm2"
top: "pool2"
pooling_param {
pool: MAX
kernel_size: 3
stride: 2
}
}
layer {
name: "conv3"
type: "Convolution"
bottom: "pool2"
top: "conv3"
param {
lr_mult: 1
decay_mult: 1
}
param {
lr_mult: 2
decay_mult: 0
}
convolution_param {
num_output: 384
pad: 1
kernel_size: 3
weight_filler {
type: "gaussian"
std: 0.01
}
bias_filler {
type: "constant"
value: 0
}
}
}
layer {
name: "relu3"
type: "ReLU"
bottom: "conv3"
top: "conv3"
}
layer {
name: "conv4"
type: "Convolution"
bottom: "conv3"
top: "conv4"
param {
lr_mult: 1
decay_mult: 1
}
param {
lr_mult: 2
decay_mult: 0
}
convolution_param {
num_output: 384
pad: 1
kernel_size: 3
group: 2
weight_filler {
type: "gaussian"
std: 0.01
}
bias_filler {
type: "constant"
value: 0.1
}
}
}
layer {
name: "relu4"
type: "ReLU"
bottom: "conv4"
top: "conv4"
}
layer {
name: "conv5"
type: "Convolution"
bottom: "conv4"
top: "conv5"
param {
lr_mult: 1
decay_mult: 1
}
param {
lr_mult: 2
decay_mult: 0
}
convolution_param {
num_output: 256
pad: 1
kernel_size: 3
group: 2
weight_filler {
type: "gaussian"
std: 0.01
}
bias_filler {
type: "constant"
value: 0.1
}
}
}
layer {
name: "relu5"
type: "ReLU"
bottom: "conv5"
top: "conv5"
}
layer {
name: "pool5"
type: "Pooling"
bottom: "conv5"
top: "pool5"
pooling_param {
pool: MAX
kernel_size: 3
stride: 2
}
}
layer {
name: "fc6"
type: "InnerProduct"
bottom: "pool5"
top: "fc6"
param {
lr_mult: 1
decay_mult: 1
}
param {
lr_mult: 2
decay_mult: 0
}
inner_product_param {
num_output: 4096
weight_filler {
type: "gaussian"
std: 0.005
}
bias_filler {
type: "constant"
value: 0.1
}
}
}
layer {
name: "relu6"
type: "ReLU"
bottom: "fc6"
top: "fc6"
}
layer {
name: "drop6"
type: "Dropout"
bottom: "fc6"
top: "fc6"
dropout_param {
dropout_ratio: 0.5
}
}
layer {
name: "fc7"
type: "InnerProduct"
bottom: "fc6"
top: "fc7"
param {
lr_mult: 1
decay_mult: 1
}
param {
lr_mult: 2
decay_mult: 0
}
inner_product_param {
num_output: 4096
weight_filler {
type: "gaussian"
std: 0.005
}
bias_filler {
type: "constant"
value: 0.1
}
}
}
layer {
name: "relu7"
type: "ReLU"
bottom: "fc7"
top: "fc7"
}
layer {
name: "drop7"
type: "Dropout"
bottom: "fc7"
top: "fc7"
dropout_param {
dropout_ratio: 0.5
}
}
layer {
name: "fc8"
type: "InnerProduct"
bottom: "fc7"
top: "fc8"
param {
lr_mult: 1
decay_mult: 1
}
param {
lr_mult: 2
decay_mult: 0
}
inner_product_param {
num_output: 3
weight_filler {
type: "gaussian"
std: 0.01
}
bias_filler {
type: "constant"
value: 0
}
}
}
layer {
name: "loss"
type: "SoftmaxWithLoss"
bottom: "fc8"
bottom: "label"
top: "loss"
}
I0720 08:22:35.049099  1774 layer_factory.hpp:77] Creating layer train-data
I0720 08:22:35.049585  1774 net.cpp:94] Creating Layer train-data
I0720 08:22:35.049602  1774 net.cpp:409] train-data -> data
I0720 08:22:35.049633  1774 net.cpp:409] train-data -> label
I0720 08:22:35.049654  1774 data_transformer.cpp:25] Loading mean file from: /opt/DIGITS/digits/jobs/20190720-065906-aa97/mean.binaryproto
I0720 08:22:35.051537  2738 db_lmdb.cpp:35] Opened lmdb /opt/DIGITS/digits/jobs/20190720-065906-aa97/train_db
I0720 08:22:35.059737  1774 data_layer.cpp:78] ReshapePrefetch 128, 3, 227, 227
I0720 08:22:35.059799  1774 data_layer.cpp:83] output data size: 128,3,227,227
I0720 08:22:35.245913  1774 net.cpp:144] Setting up train-data
I0720 08:22:35.245951  1774 net.cpp:151] Top shape: 128 3 227 227 (19787136)
I0720 08:22:35.245957  1774 net.cpp:151] Top shape: 128 (128)
I0720 08:22:35.245960  1774 net.cpp:159] Memory required for data: 79149056
I0720 08:22:35.245975  1774 layer_factory.hpp:77] Creating layer conv1
I0720 08:22:35.246006  1774 net.cpp:94] Creating Layer conv1
I0720 08:22:35.246012  1774 net.cpp:435] conv1 <- data
I0720 08:22:35.246027  1774 net.cpp:409] conv1 -> conv1
I0720 08:22:35.246901  1774 net.cpp:144] Setting up conv1
I0720 08:22:35.246917  1774 net.cpp:151] Top shape: 128 96 55 55 (37171200)
I0720 08:22:35.246922  1774 net.cpp:159] Memory required for data: 227833856
I0720 08:22:35.246939  1774 layer_factory.hpp:77] Creating layer relu1
I0720 08:22:35.246949  1774 net.cpp:94] Creating Layer relu1
I0720 08:22:35.246953  1774 net.cpp:435] relu1 <- conv1
I0720 08:22:35.246959  1774 net.cpp:396] relu1 -> conv1 (in-place)
I0720 08:22:35.246981  1774 net.cpp:144] Setting up relu1
I0720 08:22:35.246987  1774 net.cpp:151] Top shape: 128 96 55 55 (37171200)
I0720 08:22:35.246991  1774 net.cpp:159] Memory required for data: 376518656
I0720 08:22:35.246994  1774 layer_factory.hpp:77] Creating layer norm1
I0720 08:22:35.247004  1774 net.cpp:94] Creating Layer norm1
I0720 08:22:35.247009  1774 net.cpp:435] norm1 <- conv1
I0720 08:22:35.247014  1774 net.cpp:409] norm1 -> norm1
I0720 08:22:35.247539  1774 net.cpp:144] Setting up norm1
I0720 08:22:35.247572  1774 net.cpp:151] Top shape: 128 96 55 55 (37171200)
I0720 08:22:35.247576  1774 net.cpp:159] Memory required for data: 525203456
I0720 08:22:35.247581  1774 layer_factory.hpp:77] Creating layer pool1
I0720 08:22:35.247596  1774 net.cpp:94] Creating Layer pool1
I0720 08:22:35.247601  1774 net.cpp:435] pool1 <- norm1
I0720 08:22:35.247607  1774 net.cpp:409] pool1 -> pool1
I0720 08:22:35.247694  1774 net.cpp:144] Setting up pool1
I0720 08:22:35.247702  1774 net.cpp:151] Top shape: 128 96 27 27 (8957952)
I0720 08:22:35.247706  1774 net.cpp:159] Memory required for data: 561035264
I0720 08:22:35.247710  1774 layer_factory.hpp:77] Creating layer conv2
I0720 08:22:35.247720  1774 net.cpp:94] Creating Layer conv2
I0720 08:22:35.247725  1774 net.cpp:435] conv2 <- pool1
I0720 08:22:35.247730  1774 net.cpp:409] conv2 -> conv2
I0720 08:22:35.261387  1774 net.cpp:144] Setting up conv2
I0720 08:22:35.261409  1774 net.cpp:151] Top shape: 128 256 27 27 (23887872)
I0720 08:22:35.261415  1774 net.cpp:159] Memory required for data: 656586752
I0720 08:22:35.261423  1774 layer_factory.hpp:77] Creating layer relu2
I0720 08:22:35.261432  1774 net.cpp:94] Creating Layer relu2
I0720 08:22:35.261437  1774 net.cpp:435] relu2 <- conv2
I0720 08:22:35.261445  1774 net.cpp:396] relu2 -> conv2 (in-place)
I0720 08:22:35.261456  1774 net.cpp:144] Setting up relu2
I0720 08:22:35.261461  1774 net.cpp:151] Top shape: 128 256 27 27 (23887872)
I0720 08:22:35.261463  1774 net.cpp:159] Memory required for data: 752138240
I0720 08:22:35.261467  1774 layer_factory.hpp:77] Creating layer norm2
I0720 08:22:35.261474  1774 net.cpp:94] Creating Layer norm2
I0720 08:22:35.261478  1774 net.cpp:435] norm2 <- conv2
I0720 08:22:35.261484  1774 net.cpp:409] norm2 -> norm2
I0720 08:22:35.261525  1774 net.cpp:144] Setting up norm2
I0720 08:22:35.261531  1774 net.cpp:151] Top shape: 128 256 27 27 (23887872)
I0720 08:22:35.261534  1774 net.cpp:159] Memory required for data: 847689728
I0720 08:22:35.261538  1774 layer_factory.hpp:77] Creating layer pool2
I0720 08:22:35.261546  1774 net.cpp:94] Creating Layer pool2
I0720 08:22:35.261550  1774 net.cpp:435] pool2 <- norm2
I0720 08:22:35.261556  1774 net.cpp:409] pool2 -> pool2
I0720 08:22:35.261585  1774 net.cpp:144] Setting up pool2
I0720 08:22:35.261591  1774 net.cpp:151] Top shape: 128 256 13 13 (5537792)
I0720 08:22:35.261595  1774 net.cpp:159] Memory required for data: 869840896
I0720 08:22:35.261598  1774 layer_factory.hpp:77] Creating layer conv3
I0720 08:22:35.261608  1774 net.cpp:94] Creating Layer conv3
I0720 08:22:35.261612  1774 net.cpp:435] conv3 <- pool2
I0720 08:22:35.261620  1774 net.cpp:409] conv3 -> conv3
I0720 08:22:35.272513  1774 net.cpp:144] Setting up conv3
I0720 08:22:35.272531  1774 net.cpp:151] Top shape: 128 384 13 13 (8306688)
I0720 08:22:35.272536  1774 net.cpp:159] Memory required for data: 903067648
I0720 08:22:35.272545  1774 layer_factory.hpp:77] Creating layer relu3
I0720 08:22:35.272552  1774 net.cpp:94] Creating Layer relu3
I0720 08:22:35.272557  1774 net.cpp:435] relu3 <- conv3
I0720 08:22:35.272562  1774 net.cpp:396] relu3 -> conv3 (in-place)
I0720 08:22:35.272572  1774 net.cpp:144] Setting up relu3
I0720 08:22:35.272575  1774 net.cpp:151] Top shape: 128 384 13 13 (8306688)
I0720 08:22:35.272578  1774 net.cpp:159] Memory required for data: 936294400
I0720 08:22:35.272583  1774 layer_factory.hpp:77] Creating layer conv4
I0720 08:22:35.272593  1774 net.cpp:94] Creating Layer conv4
I0720 08:22:35.272595  1774 net.cpp:435] conv4 <- conv3
I0720 08:22:35.272603  1774 net.cpp:409] conv4 -> conv4
I0720 08:22:35.280977  1774 net.cpp:144] Setting up conv4
I0720 08:22:35.280994  1774 net.cpp:151] Top shape: 128 384 13 13 (8306688)
I0720 08:22:35.280997  1774 net.cpp:159] Memory required for data: 969521152
I0720 08:22:35.281004  1774 layer_factory.hpp:77] Creating layer relu4
I0720 08:22:35.281011  1774 net.cpp:94] Creating Layer relu4
I0720 08:22:35.281015  1774 net.cpp:435] relu4 <- conv4
I0720 08:22:35.281046  1774 net.cpp:396] relu4 -> conv4 (in-place)
I0720 08:22:35.281055  1774 net.cpp:144] Setting up relu4
I0720 08:22:35.281060  1774 net.cpp:151] Top shape: 128 384 13 13 (8306688)
I0720 08:22:35.281064  1774 net.cpp:159] Memory required for data: 1002747904
I0720 08:22:35.281066  1774 layer_factory.hpp:77] Creating layer conv5
I0720 08:22:35.281075  1774 net.cpp:94] Creating Layer conv5
I0720 08:22:35.281080  1774 net.cpp:435] conv5 <- conv4
I0720 08:22:35.281085  1774 net.cpp:409] conv5 -> conv5
I0720 08:22:35.286710  1774 net.cpp:144] Setting up conv5
I0720 08:22:35.286726  1774 net.cpp:151] Top shape: 128 256 13 13 (5537792)
I0720 08:22:35.286731  1774 net.cpp:159] Memory required for data: 1024899072
I0720 08:22:35.286739  1774 layer_factory.hpp:77] Creating layer relu5
I0720 08:22:35.286746  1774 net.cpp:94] Creating Layer relu5
I0720 08:22:35.286751  1774 net.cpp:435] relu5 <- conv5
I0720 08:22:35.286756  1774 net.cpp:396] relu5 -> conv5 (in-place)
I0720 08:22:35.286764  1774 net.cpp:144] Setting up relu5
I0720 08:22:35.286768  1774 net.cpp:151] Top shape: 128 256 13 13 (5537792)
I0720 08:22:35.286772  1774 net.cpp:159] Memory required for data: 1047050240
I0720 08:22:35.286775  1774 layer_factory.hpp:77] Creating layer pool5
I0720 08:22:35.286782  1774 net.cpp:94] Creating Layer pool5
I0720 08:22:35.286785  1774 net.cpp:435] pool5 <- conv5
I0720 08:22:35.286790  1774 net.cpp:409] pool5 -> pool5
I0720 08:22:35.286826  1774 net.cpp:144] Setting up pool5
I0720 08:22:35.286833  1774 net.cpp:151] Top shape: 128 256 6 6 (1179648)
I0720 08:22:35.286835  1774 net.cpp:159] Memory required for data: 1051768832
I0720 08:22:35.286839  1774 layer_factory.hpp:77] Creating layer fc6
I0720 08:22:35.286851  1774 net.cpp:94] Creating Layer fc6
I0720 08:22:35.286855  1774 net.cpp:435] fc6 <- pool5
I0720 08:22:35.286861  1774 net.cpp:409] fc6 -> fc6
I0720 08:22:35.795708  1774 net.cpp:144] Setting up fc6
I0720 08:22:35.795755  1774 net.cpp:151] Top shape: 128 4096 (524288)
I0720 08:22:35.795760  1774 net.cpp:159] Memory required for data: 1053865984
I0720 08:22:35.795774  1774 layer_factory.hpp:77] Creating layer relu6
I0720 08:22:35.795787  1774 net.cpp:94] Creating Layer relu6
I0720 08:22:35.795792  1774 net.cpp:435] relu6 <- fc6
I0720 08:22:35.795802  1774 net.cpp:396] relu6 -> fc6 (in-place)
I0720 08:22:35.795821  1774 net.cpp:144] Setting up relu6
I0720 08:22:35.795826  1774 net.cpp:151] Top shape: 128 4096 (524288)
I0720 08:22:35.795830  1774 net.cpp:159] Memory required for data: 1055963136
I0720 08:22:35.795833  1774 layer_factory.hpp:77] Creating layer drop6
I0720 08:22:35.795856  1774 net.cpp:94] Creating Layer drop6
I0720 08:22:35.795861  1774 net.cpp:435] drop6 <- fc6
I0720 08:22:35.795866  1774 net.cpp:396] drop6 -> fc6 (in-place)
I0720 08:22:35.795892  1774 net.cpp:144] Setting up drop6
I0720 08:22:35.795897  1774 net.cpp:151] Top shape: 128 4096 (524288)
I0720 08:22:35.795902  1774 net.cpp:159] Memory required for data: 1058060288
I0720 08:22:35.795904  1774 layer_factory.hpp:77] Creating layer fc7
I0720 08:22:35.795915  1774 net.cpp:94] Creating Layer fc7
I0720 08:22:35.795919  1774 net.cpp:435] fc7 <- fc6
I0720 08:22:35.795925  1774 net.cpp:409] fc7 -> fc7
I0720 08:22:36.014308  1774 net.cpp:144] Setting up fc7
I0720 08:22:36.014356  1774 net.cpp:151] Top shape: 128 4096 (524288)
I0720 08:22:36.014360  1774 net.cpp:159] Memory required for data: 1060157440
I0720 08:22:36.014375  1774 layer_factory.hpp:77] Creating layer relu7
I0720 08:22:36.014389  1774 net.cpp:94] Creating Layer relu7
I0720 08:22:36.014395  1774 net.cpp:435] relu7 <- fc7
I0720 08:22:36.014405  1774 net.cpp:396] relu7 -> fc7 (in-place)
I0720 08:22:36.014425  1774 net.cpp:144] Setting up relu7
I0720 08:22:36.014430  1774 net.cpp:151] Top shape: 128 4096 (524288)
I0720 08:22:36.014434  1774 net.cpp:159] Memory required for data: 1062254592
I0720 08:22:36.014438  1774 layer_factory.hpp:77] Creating layer drop7
I0720 08:22:36.014447  1774 net.cpp:94] Creating Layer drop7
I0720 08:22:36.014451  1774 net.cpp:435] drop7 <- fc7
I0720 08:22:36.014503  1774 net.cpp:396] drop7 -> fc7 (in-place)
I0720 08:22:36.014530  1774 net.cpp:144] Setting up drop7
I0720 08:22:36.014536  1774 net.cpp:151] Top shape: 128 4096 (524288)
I0720 08:22:36.014540  1774 net.cpp:159] Memory required for data: 1064351744
I0720 08:22:36.014544  1774 layer_factory.hpp:77] Creating layer fc8
I0720 08:22:36.014555  1774 net.cpp:94] Creating Layer fc8
I0720 08:22:36.014559  1774 net.cpp:435] fc8 <- fc7
I0720 08:22:36.014565  1774 net.cpp:409] fc8 -> fc8
I0720 08:22:36.015722  1774 net.cpp:144] Setting up fc8
I0720 08:22:36.015738  1774 net.cpp:151] Top shape: 128 3 (384)
I0720 08:22:36.015741  1774 net.cpp:159] Memory required for data: 1064353280
I0720 08:22:36.015748  1774 layer_factory.hpp:77] Creating layer loss
I0720 08:22:36.015769  1774 net.cpp:94] Creating Layer loss
I0720 08:22:36.015774  1774 net.cpp:435] loss <- fc8
I0720 08:22:36.015780  1774 net.cpp:435] loss <- label
I0720 08:22:36.015790  1774 net.cpp:409] loss -> loss
I0720 08:22:36.015816  1774 layer_factory.hpp:77] Creating layer loss
…
I0720 08:22:36.016497  1774 solver.cpp:181] Creating test net (#0) specified by net file: train_val.prototxt
I0720 08:22:36.016542  1774 net.cpp:323] The NetState phase (1) differed from the phase (0) specified by a rule in layer train-data
I0720 08:22:36.016692  1774 net.cpp:52] Initializing net from parameters:
state {
phase: TEST
}
layer {
name: "val-data"
type: "Data"
top: "data"
top: "label"
include {
phase: TEST
}
transform_param {
crop_size: 227
mean_file: "/opt/DIGITS/digits/jobs/20190720-065906-aa97/mean.binaryproto"
}
data_param {
source: "/opt/DIGITS/digits/jobs/20190720-065906-aa97/val_db"
batch_size: 32
backend: LMDB
}
}
layer {
name: "conv1"
type: "Convolution"
bottom: "data"
top: "conv1"
param {
lr_mult: 1
decay_mult: 1
}
param {
lr_mult: 2
decay_mult: 0
}
convolution_param {
num_output: 96
kernel_size: 11
stride: 4
weight_filler {
type: "gaussian"
std: 0.01
}
bias_filler {
type: "constant"
value: 0
}
}
}
layer {
name: "relu1"
type: "ReLU"
bottom: "conv1"
top: "conv1"
}
layer {
name: "norm1"
type: "LRN"
bottom: "conv1"
top: "norm1"
lrn_param {
local_size: 5
alpha: 0.0001
beta: 0.75
}
}
layer {
name: "pool1"
type: "Pooling"
bottom: "norm1"
top: "pool1"
pooling_param {
pool: MAX
kernel_size: 3
stride: 2
}
}
layer {
name: "conv2"
type: "Convolution"
bottom: "pool1"
top: "conv2"
param {
lr_mult: 1
decay_mult: 1
}
param {
lr_mult: 2
decay_mult: 0
}
convolution_param {
num_output: 256
pad: 2
kernel_size: 5
group: 2
weight_filler {
type: "gaussian"
std: 0.01
}
bias_filler {
type: "constant"
value: 0.1
}
}
}
layer {
name: "relu2"
type: "ReLU"
bottom: "conv2"
top: "conv2"
}
layer {
name: "norm2"
type: "LRN"
bottom: "conv2"
top: "norm2"
lrn_param {
local_size: 5
alpha: 0.0001
beta: 0.75
}
}
layer {
name: "pool2"
type: "Pooling"
bottom: "norm2"
top: "pool2"
pooling_param {
pool: MAX
kernel_size: 3
stride: 2
}
}
layer {
name: "conv3"
type: "Convolution"
bottom: "pool2"
top: "conv3"
param {
lr_mult: 1
decay_mult: 1
}
param {
lr_mult: 2
decay_mult: 0
}
convolution_param {
num_output: 384
pad: 1
kernel_size: 3
weight_filler {
type: "gaussian"
std: 0.01
}
bias_filler {
type: "constant"
value: 0
}
}
}
layer {
name: "relu3"
type: "ReLU"
bottom: "conv3"
top: "conv3"
}
layer {
name: "conv4"
type: "Convolution"
bottom: "conv3"
top: "conv4"
param {
lr_mult: 1
decay_mult: 1
}
param {
lr_mult: 2
decay_mult: 0
}
convolution_param {
num_output: 384
pad: 1
kernel_size: 3
group: 2
weight_filler {
type: "gaussian"
std: 0.01
}
bias_filler {
type: "constant"
value: 0.1
}
}
}
layer {
name: "relu4"
type: "ReLU"
bottom: "conv4"
top: "conv4"
}
layer {
name: "conv5"
type: "Convolution"
bottom: "conv4"
top: "conv5"
param {
lr_mult: 1
decay_mult: 1
}
param {
lr_mult: 2
decay_mult: 0
}
convolution_param {
num_output: 256
pad: 1
kernel_size: 3
group: 2
weight_filler {
type: "gaussian"
std: 0.01
}
bias_filler {
type: "constant"
value: 0.1
}
}
}
layer {
name: "relu5"
type: "ReLU"
bottom: "conv5"
top: "conv5"
}
layer {
name: "pool5"
type: "Pooling"
bottom: "conv5"
top: "pool5"
pooling_param {
pool: MAX
kernel_size: 3
stride: 2
}
}
layer {
name: "fc6"
type: "InnerProduct"
bottom: "pool5"
top: "fc6"
param {
lr_mult: 1
decay_mult: 1
}
param {
lr_mult: 2
decay_mult: 0
}
inner_product_param {
num_output: 4096
weight_filler {
type: "gaussian"
std: 0.005
}
bias_filler {
type: "constant"
value: 0.1
}
}
}
layer {
name: "relu6"
type: "ReLU"
bottom: "fc6"
top: "fc6"
}
layer {
name: "drop6"
type: "Dropout"
bottom: "fc6"
top: "fc6"
dropout_param {
dropout_ratio: 0.5
}
}
layer {
name: "fc7"
type: "InnerProduct"
bottom: "fc6"
top: "fc7"
param {
lr_mult: 1
decay_mult: 1
}
param {
lr_mult: 2
decay_mult: 0
}
inner_product_param {
num_output: 4096
weight_filler {
type: "gaussian"
std: 0.005
}
bias_filler {
type: "constant"
value: 0.1
}
}
}
layer {
name: "relu7"
type: "ReLU"
bottom: "fc7"
top: "fc7"
}
layer {
name: "drop7"
type: "Dropout"
bottom: "fc7"
top: "fc7"
dropout_param {
dropout_ratio: 0.5
}
}
layer {
name: "fc8"
type: "InnerProduct"
bottom: "fc7"
top: "fc8"
param {
lr_mult: 1
decay_mult: 1
}
param {
lr_mult: 2
decay_mult: 0
}
inner_product_param {
num_output: 3
weight_filler {
type: "gaussian"
std: 0.01
}
bias_filler {
type: "constant"
value: 0
}
}
}
layer {
name: "accuracy"
type: "Accuracy"
bottom: "fc8"
bottom: "label"
top: "accuracy"
include {
phase: TEST
}
}
layer {
name: "loss"
type: "SoftmaxWithLoss"
bottom: "fc8"
bottom: "label"
top: "loss"
}
I0720 08:22:36.016840  1774 layer_factory.hpp:77] Creating layer val-data
I0720 08:22:36.017278  1774 net.cpp:94] Creating Layer val-data
I0720 08:22:36.017302  1774 net.cpp:409] val-data -> data
I0720 08:22:36.017313  1774 net.cpp:409] val-data -> label
I0720 08:22:36.017324  1774 data_transformer.cpp:25] Loading mean file from: /opt/DIGITS/digits/jobs/20190720-065906-aa97/mean.binaryproto
I0720 08:22:36.018100  3200 db_lmdb.cpp:35] Opened lmdb /opt/DIGITS/digits/jobs/20190720-065906-aa97/val_db
I0720 08:22:36.025658  1774 data_layer.cpp:78] ReshapePrefetch 32, 3, 227, 227
I0720 08:22:36.025722  1774 data_layer.cpp:83] output data size: 32,3,227,227
I0720 08:22:36.066088  1774 net.cpp:144] Setting up val-data
I0720 08:22:36.066123  1774 net.cpp:151] Top shape: 32 3 227 227 (4946784)
I0720 08:22:36.066129  1774 net.cpp:151] Top shape: 32 (32)
I0720 08:22:36.066159  1774 net.cpp:159] Memory required for data: 19787264
I0720 08:22:36.066169  1774 layer_factory.hpp:77] Creating layer label_val-data_1_split
I0720 08:22:36.066187  1774 net.cpp:94] Creating Layer label_val-data_1_split
I0720 08:22:36.066193  1774 net.cpp:435] label_val-data_1_split <- label
I0720 08:22:36.066201  1774 net.cpp:409] label_val-data_1_split -> label_val-data_1_split_0
I0720 08:22:36.066212  1774 net.cpp:409] label_val-data_1_split -> label_val-data_1_split_1
I0720 08:22:36.066299  1774 net.cpp:144] Setting up label_val-data_1_split
I0720 08:22:36.066308  1774 net.cpp:151] Top shape: 32 (32)
I0720 08:22:36.066313  1774 net.cpp:151] Top shape: 32 (32)
I0720 08:22:36.066315  1774 net.cpp:159] Memory required for data: 19787520
I0720 08:22:36.066320  1774 layer_factory.hpp:77] Creating layer conv1
I0720 08:22:36.066335  1774 net.cpp:94] Creating Layer conv1
I0720 08:22:36.066340  1774 net.cpp:435] conv1 <- data
I0720 08:22:36.066346  1774 net.cpp:409] conv1 -> conv1
I0720 08:22:36.066995  1774 net.cpp:144] Setting up conv1
I0720 08:22:36.067005  1774 net.cpp:151] Top shape: 32 96 55 55 (9292800)
I0720 08:22:36.067009  1774 net.cpp:159] Memory required for data: 56958720
I0720 08:22:36.067020  1774 layer_factory.hpp:77] Creating layer relu1
I0720 08:22:36.067028  1774 net.cpp:94] Creating Layer relu1
I0720 08:22:36.067032  1774 net.cpp:435] relu1 <- conv1
I0720 08:22:36.067039  1774 net.cpp:396] relu1 -> conv1 (in-place)
I0720 08:22:36.067047  1774 net.cpp:144] Setting up relu1
I0720 08:22:36.067052  1774 net.cpp:151] Top shape: 32 96 55 55 (9292800)
I0720 08:22:36.067055  1774 net.cpp:159] Memory required for data: 94129920
I0720 08:22:36.067059  1774 layer_factory.hpp:77] Creating layer norm1
I0720 08:22:36.067067  1774 net.cpp:94] Creating Layer norm1
I0720 08:22:36.067071  1774 net.cpp:435] norm1 <- conv1
I0720 08:22:36.067076  1774 net.cpp:409] norm1 -> norm1
I0720 08:22:36.067628  1774 net.cpp:144] Setting up norm1
I0720 08:22:36.067649  1774 net.cpp:151] Top shape: 32 96 55 55 (9292800)
I0720 08:22:36.067653  1774 net.cpp:159] Memory required for data: 131301120
I0720 08:22:36.067677  1774 layer_factory.hpp:77] Creating layer pool1
I0720 08:22:36.067687  1774 net.cpp:94] Creating Layer pool1
I0720 08:22:36.067692  1774 net.cpp:435] pool1 <- norm1
I0720 08:22:36.067700  1774 net.cpp:409] pool1 -> pool1
I0720 08:22:36.067745  1774 net.cpp:144] Setting up pool1
I0720 08:22:36.067752  1774 net.cpp:151] Top shape: 32 96 27 27 (2239488)
I0720 08:22:36.067756  1774 net.cpp:159] Memory required for data: 140259072
I0720 08:22:36.067759  1774 layer_factory.hpp:77] Creating layer conv2
I0720 08:22:36.067770  1774 net.cpp:94] Creating Layer conv2
I0720 08:22:36.067775  1774 net.cpp:435] conv2 <- pool1
I0720 08:22:36.067781  1774 net.cpp:409] conv2 -> conv2
I0720 08:22:36.073854  1774 net.cpp:144] Setting up conv2
I0720 08:22:36.073891  1774 net.cpp:151] Top shape: 32 256 27 27 (5971968)
I0720 08:22:36.073896  1774 net.cpp:159] Memory required for data: 164146944
I0720 08:22:36.073909  1774 layer_factory.hpp:77] Creating layer relu2
I0720 08:22:36.073920  1774 net.cpp:94] Creating Layer relu2
I0720 08:22:36.073925  1774 net.cpp:435] relu2 <- conv2
I0720 08:22:36.073935  1774 net.cpp:396] relu2 -> conv2 (in-place)
I0720 08:22:36.073947  1774 net.cpp:144] Setting up relu2
I0720 08:22:36.073952  1774 net.cpp:151] Top shape: 32 256 27 27 (5971968)
I0720 08:22:36.073956  1774 net.cpp:159] Memory required for data: 188034816
I0720 08:22:36.073959  1774 layer_factory.hpp:77] Creating layer norm2
I0720 08:22:36.073969  1774 net.cpp:94] Creating Layer norm2
I0720 08:22:36.074048  1774 net.cpp:435] norm2 <- conv2
I0720 08:22:36.074054  1774 net.cpp:409] norm2 -> norm2
I0720 08:22:36.074108  1774 net.cpp:144] Setting up norm2
I0720 08:22:36.074116  1774 net.cpp:151] Top shape: 32 256 27 27 (5971968)
I0720 08:22:36.074120  1774 net.cpp:159] Memory required for data: 211922688
I0720 08:22:36.074126  1774 layer_factory.hpp:77] Creating layer pool2
I0720 08:22:36.074136  1774 net.cpp:94] Creating Layer pool2
I0720 08:22:36.074139  1774 net.cpp:435] pool2 <- norm2
I0720 08:22:36.074146  1774 net.cpp:409] pool2 -> pool2
I0720 08:22:36.074180  1774 net.cpp:144] Setting up pool2
I0720 08:22:36.074187  1774 net.cpp:151] Top shape: 32 256 13 13 (1384448)
I0720 08:22:36.074192  1774 net.cpp:159] Memory required for data: 217460480
I0720 08:22:36.074195  1774 layer_factory.hpp:77] Creating layer conv3
I0720 08:22:36.074206  1774 net.cpp:94] Creating Layer conv3
I0720 08:22:36.074210  1774 net.cpp:435] conv3 <- pool2
I0720 08:22:36.074220  1774 net.cpp:409] conv3 -> conv3
I0720 08:22:36.085597  1774 net.cpp:144] Setting up conv3
I0720 08:22:36.085645  1774 net.cpp:151] Top shape: 32 384 13 13 (2076672)
I0720 08:22:36.085650  1774 net.cpp:159] Memory required for data: 225767168
I0720 08:22:36.085665  1774 layer_factory.hpp:77] Creating layer relu3
I0720 08:22:36.085677  1774 net.cpp:94] Creating Layer relu3
I0720 08:22:36.085682  1774 net.cpp:435] relu3 <- conv3
I0720 08:22:36.085691  1774 net.cpp:396] relu3 -> conv3 (in-place)
I0720 08:22:36.085705  1774 net.cpp:144] Setting up relu3
I0720 08:22:36.085711  1774 net.cpp:151] Top shape: 32 384 13 13 (2076672)
I0720 08:22:36.085713  1774 net.cpp:159] Memory required for data: 234073856
I0720 08:22:36.085717  1774 layer_factory.hpp:77] Creating layer conv4
I0720 08:22:36.085731  1774 net.cpp:94] Creating Layer conv4
I0720 08:22:36.085734  1774 net.cpp:435] conv4 <- conv3
I0720 08:22:36.085742  1774 net.cpp:409] conv4 -> conv4
I0720 08:22:36.096581  1774 net.cpp:144] Setting up conv4
I0720 08:22:36.096613  1774 net.cpp:151] Top shape: 32 384 13 13 (2076672)
I0720 08:22:36.096618  1774 net.cpp:159] Memory required for data: 242380544
I0720 08:22:36.096634  1774 layer_factory.hpp:77] Creating layer relu4
I0720 08:22:36.096645  1774 net.cpp:94] Creating Layer relu4
I0720 08:22:36.096650  1774 net.cpp:435] relu4 <- conv4
I0720 08:22:36.096659  1774 net.cpp:396] relu4 -> conv4 (in-place)
I0720 08:22:36.096673  1774 net.cpp:144] Setting up relu4
I0720 08:22:36.096678  1774 net.cpp:151] Top shape: 32 384 13 13 (2076672)
I0720 08:22:36.096680  1774 net.cpp:159] Memory required for data: 250687232
I0720 08:22:36.096684  1774 layer_factory.hpp:77] Creating layer conv5
I0720 08:22:36.096696  1774 net.cpp:94] Creating Layer conv5
I0720 08:22:36.096699  1774 net.cpp:435] conv5 <- conv4
I0720 08:22:36.096706  1774 net.cpp:409] conv5 -> conv5
I0720 08:22:36.102311  1774 net.cpp:144] Setting up conv5
I0720 08:22:36.102329  1774 net.cpp:151] Top shape: 32 256 13 13 (1384448)
I0720 08:22:36.102334  1774 net.cpp:159] Memory required for data: 256225024
I0720 08:22:36.102345  1774 layer_factory.hpp:77] Creating layer relu5
I0720 08:22:36.102355  1774 net.cpp:94] Creating Layer relu5
I0720 08:22:36.102358  1774 net.cpp:435] relu5 <- conv5
I0720 08:22:36.102401  1774 net.cpp:396] relu5 -> conv5 (in-place)
I0720 08:22:36.102411  1774 net.cpp:144] Setting up relu5
I0720 08:22:36.102416  1774 net.cpp:151] Top shape: 32 256 13 13 (1384448)
I0720 08:22:36.102421  1774 net.cpp:159] Memory required for data: 261762816
I0720 08:22:36.102423  1774 layer_factory.hpp:77] Creating layer pool5
I0720 08:22:36.102444  1774 net.cpp:94] Creating Layer pool5
I0720 08:22:36.102447  1774 net.cpp:435] pool5 <- conv5
I0720 08:22:36.102453  1774 net.cpp:409] pool5 -> pool5
I0720 08:22:36.102504  1774 net.cpp:144] Setting up pool5
I0720 08:22:36.102511  1774 net.cpp:151] Top shape: 32 256 6 6 (294912)
I0720 08:22:36.102515  1774 net.cpp:159] Memory required for data: 262942464
I0720 08:22:36.102519  1774 layer_factory.hpp:77] Creating layer fc6
I0720 08:22:36.102527  1774 net.cpp:94] Creating Layer fc6
I0720 08:22:36.102531  1774 net.cpp:435] fc6 <- pool5
I0720 08:22:36.102538  1774 net.cpp:409] fc6 -> fc6
I0720 08:22:36.690352  1774 net.cpp:144] Setting up fc6
I0720 08:22:36.690390  1774 net.cpp:151] Top shape: 32 4096 (131072)
I0720 08:22:36.690394  1774 net.cpp:159] Memory required for data: 263466752
I0720 08:22:36.690407  1774 layer_factory.hpp:77] Creating layer relu6
I0720 08:22:36.690418  1774 net.cpp:94] Creating Layer relu6
I0720 08:22:36.690423  1774 net.cpp:435] relu6 <- fc6
I0720 08:22:36.690433  1774 net.cpp:396] relu6 -> fc6 (in-place)
I0720 08:22:36.690448  1774 net.cpp:144] Setting up relu6
I0720 08:22:36.690452  1774 net.cpp:151] Top shape: 32 4096 (131072)
I0720 08:22:36.690455  1774 net.cpp:159] Memory required for data: 263991040
I0720 08:22:36.690459  1774 layer_factory.hpp:77] Creating layer drop6
I0720 08:22:36.690467  1774 net.cpp:94] Creating Layer drop6
I0720 08:22:36.690470  1774 net.cpp:435] drop6 <- fc6
I0720 08:22:36.690476  1774 net.cpp:396] drop6 -> fc6 (in-place)
I0720 08:22:36.690505  1774 net.cpp:144] Setting up drop6
I0720 08:22:36.690510  1774 net.cpp:151] Top shape: 32 4096 (131072)
I0720 08:22:36.690513  1774 net.cpp:159] Memory required for data: 264515328
I0720 08:22:36.690517  1774 layer_factory.hpp:77] Creating layer fc7
I0720 08:22:36.690526  1774 net.cpp:94] Creating Layer fc7
I0720 08:22:36.690531  1774 net.cpp:435] fc7 <- fc6
I0720 08:22:36.690536  1774 net.cpp:409] fc7 -> fc7
I0720 08:22:36.929864  1774 net.cpp:144] Setting up fc7
I0720 08:22:36.929900  1774 net.cpp:151] Top shape: 32 4096 (131072)
I0720 08:22:36.929905  1774 net.cpp:159] Memory required for data: 265039616
I0720 08:22:36.929916  1774 layer_factory.hpp:77] Creating layer relu7
I0720 08:22:36.929929  1774 net.cpp:94] Creating Layer relu7
I0720 08:22:36.929934  1774 net.cpp:435] relu7 <- fc7
I0720 08:22:36.929942  1774 net.cpp:396] relu7 -> fc7 (in-place)
I0720 08:22:36.929957  1774 net.cpp:144] Setting up relu7
I0720 08:22:36.929962  1774 net.cpp:151] Top shape: 32 4096 (131072)
I0720 08:22:36.929965  1774 net.cpp:159] Memory required for data: 265563904
I0720 08:22:36.929970  1774 layer_factory.hpp:77] Creating layer drop7
I0720 08:22:36.929976  1774 net.cpp:94] Creating Layer drop7
I0720 08:22:36.929980  1774 net.cpp:435] drop7 <- fc7
I0720 08:22:36.929986  1774 net.cpp:396] drop7 -> fc7 (in-place)
I0720 08:22:36.930016  1774 net.cpp:144] Setting up drop7
I0720 08:22:36.930022  1774 net.cpp:151] Top shape: 32 4096 (131072)
I0720 08:22:36.930024  1774 net.cpp:159] Memory required for data: 266088192
I0720 08:22:36.930028  1774 layer_factory.hpp:77] Creating layer fc8
I0720 08:22:36.930037  1774 net.cpp:94] Creating Layer fc8
I0720 08:22:36.930040  1774 net.cpp:435] fc8 <- fc7
I0720 08:22:36.930047  1774 net.cpp:409] fc8 -> fc8
I0720 08:22:36.930294  1774 net.cpp:144] Setting up fc8
I0720 08:22:36.930310  1774 net.cpp:151] Top shape: 32 3 (96)
I0720 08:22:36.930315  1774 net.cpp:159] Memory required for data: 266088576
I0720 08:22:36.930325  1774 layer_factory.hpp:77] Creating layer fc8_fc8_0_split
I0720 08:22:36.930336  1774 net.cpp:94] Creating Layer fc8_fc8_0_split
I0720 08:22:36.930343  1774 net.cpp:435] fc8_fc8_0_split <- fc8
I0720 08:22:36.930353  1774 net.cpp:409] fc8_fc8_0_split -> fc8_fc8_0_split_0
I0720 08:22:36.930407  1774 net.cpp:409] fc8_fc8_0_split -> fc8_fc8_0_split_1
I0720 08:22:36.930456  1774 net.cpp:144] Setting up fc8_fc8_0_split
I0720 08:22:36.930464  1774 net.cpp:151] Top shape: 32 3 (96)
I0720 08:22:36.930469  1774 net.cpp:151] Top shape: 32 3 (96)
I0720 08:22:36.930471  1774 net.cpp:159] Memory required for data: 266089344
I0720 08:22:36.930475  1774 layer_factory.hpp:77] Creating layer accuracy
I0720 08:22:36.930485  1774 net.cpp:94] Creating Layer accuracy
I0720 08:22:36.930488  1774 net.cpp:435] accuracy <- fc8_fc8_0_split_0
I0720 08:22:36.930493  1774 net.cpp:435] accuracy <- label_val-data_1_split_0
I0720 08:22:36.930500  1774 net.cpp:409] accuracy -> accuracy
…
